…
an class="line">    netG = nn.DataParallel(netG, list(range(ngpu)))</span><br><span class="line"></span><br><span class="line"><span class="comment"># Apply the weights_init function to randomly initialize all weights</span></span><br><span class="line"><span class="comment">#  to mean=0, stdev=0.2.</span></span><br><span class="line">netG.apply(weights_init)</span><br><span class="line"></span><br><span class="line"><span class="comment"># Print the model</span></span><br><span class="line">print(netG)</span><br></pre></td></tr></table></figure><pre><code>Generator(  (main): Sequential(    (0): ConvTranspose2d(100, 512, kernel_size=(4, 4), stride=(1, 1), bias=False)    (1): BatchNorm2d(512, eps=1e-05, momentum=0.1, affine=True, track_running_stats=True)    (2): ReLU(inplace=True)    (3): ConvTranspose2d(512, 256, kernel_size=(4, 4), stride=(2, 2), padding=(1, 1), bias=False)    (4): BatchNorm2d(256, eps=1e-05, momentum=0.1, affine=True, track_running_stats=True)    (5): ReLU(inplace=True)    (6): ConvTranspose2d(256, 128, kernel_size=(4, 4), stride=(2, 2), padding=(1, 1), bias=False)    (7): BatchNorm2d(128, eps=1e-05, momentum=0.1, affine=True, track_running_stats=True)    (8): ReLU(inplace=True)    (9): ConvTranspose2d(128, 64, kernel_size=(4, 4), stride=(2, 2), padding=(1, 1), bias=False)    (10): BatchNorm2d(64, eps=1e-05, momentum=0.1, affine=True, track_running_stats=True)    (11): ReLU(inplace=True)    (12): ConvTranspose2d(64, 3, kernel_size=(4, 4), stride=(2, 2), padding=(1, 1), bias=False)    (13): Tanh()  ))</code></pre><p>Discriminator</p><p>As mentioned, the discriminator, $D$, is a binary classification<br>network that takes an image as input and outputs a scalar probability<br>that the input image is real (as opposed to fake). Here, $D$ takes<br>a 3x64x64 input image, processes it through a series of Conv2d,<
…
="line">    netD = nn.DataParallel(netD, list(range(ngpu)))</span><br><span class="line">    </span><br><span class="line"><span class="comment"># Apply the weights_init function to randomly initialize all weights</span></span><br><span class="line"><span class="comment">#  to mean=0, stdev=0.2.</span></span><br><span class="line">netD.apply(weights_init)</span><br><span class="line"></span><br><span class="line"><span class="comment"># Print the model</span></span><br><span class="line">print(netD)</span><br></pre></td></tr></table></figure><pre><code>Discriminator(  (main): Sequential(    (0): Conv2d(3, 64, kernel_size=(4, 4), stride=(2, 2), padding=(1, 1), bias=False)    (1): LeakyReLU(negative_slope=0.2, inplace=True)    (2): Conv2d(64, 128, kernel_size=(4, 4), stride=(2, 2), padding=(1, 1), bias=False)    (3): BatchNorm2d(128, eps=1e-05, momentum=0.1, affine=True, track_running_stats=True)    (4): LeakyReLU(negative_slope=0.2, inplace=True)    (5): Conv2d(128, 256, kernel_size=(4, 4), stride=(2, 2), padding=(1, 1), bias=False)    (6): BatchNorm2d(256, eps=1e-05, momentum=0.1, affine=True, track_running_stats=True)    (7): LeakyReLU(negative_slope=0.2, inplace=True)    (8): Conv2d(256, 512, kernel_size=(4, 4), stride=(2, 2), padding=(1, 1), bias=False)    (9): BatchNorm2d(512, eps=1e-05, momentum=0.1, affine=True, track_running_stats=True)    (10): LeakyReLU(negative_slope=0.2, inplace=True)    (11): Conv2d(512, 1, kernel_size=(4, 4), stride=(1, 1), bias=False)    (12): Sigmoid()  ))</code></pre><p>Loss Functions and Optimizers</p><p>With $D$ and $G$ setup, we can specify how they learn<br>through the loss functions and optimizers. We will use the Binary Cross<br>Entropy loss<br>(<code>BCELoss &lt;https://pytorch.org/docs/stable/nn.html#torch.nn.BCELoss&gt;</code>__)<br>function which is defined in P
…
ent"># all dimensions except the batch dimension</span></span><br><span class="line">        num_features = <span class="number">1</span></span><br><span class="line">        <span class="keyword">for</span> s <span class="keyword">in</span> size:</span><br><span class="line">            num_features *= s</span><br><span class="line">        <span class="keyword">return</span> num_features</span><br><span class="line"></span><br><span class="line"></span><br><span class="line">net = Net()</span><br><span class="line">print(net)</span><br></pre></td></tr></table></figure><pre><code>Net(  (conv1): Conv2d(1, 6, kernel_size=(3, 3), stride=(1, 1))  (conv2): Conv2d(6, 16, kernel_size=(3, 3), stride=(1, 1))  (fc1): Linear(in_features=576, out_features=120, bias=True)  (fc2): Linear(in_features=120, out_features=84, bias=True)  (fc3): Linear(in_features=84, out_features=10, bias=True))</code></pre><p>You just have to define the <code>forward</code> function, and the <code>backward</code><br>function (where gradients are computed) is automatically defined for you<br>using <code>autograd</code>.<br>You can use any of the Tensor operations in the <code>forward</code> function.</p><p>The learnable parameters of a model are returned by <co
…
